model/model_op.pth (torch, 16799 bytes, 4 tensors)

linear1.weight f4 [256, 11]
-1.0529081 -0.77410614 1.4093062 0.33705422 0.05777342 0.22897099 0.15083721 -0.49860483
0.5640675 0.6094182 -1.3965225 -0.3315823 0.9632341 0.5369 -0.5151031 -0.06280481
0.08851356 -1.1487775 0.20657033 -0.5965217 0.34213376 -0.8617609 0.90610546 0.6341525
-0.84140164 0.2339895 -0.14793727 0.84685445 -0.26782662 -0.33497778 -0.72227424 -0.6614921
0.68085414 -0.054316632 -0.40970775 -0.04276659 0.83037853 -0.07780405 1.3206589 -0.020979343
-0.7470945 0.5900806 0.57712036 0.43870464 0.47193977 0.77720726 -0.45960802 0.018803095
0.78294885 -0.6730601 0.15659803 -0.44232866 0.17061864 0.44360104 0.014482151 -0.9199821
-0.6867027 0.36882794 -0.24595773 -0.4217606 0.014598923 0.1322639 -0.62336886 0.63726467
-0.29970232 -0.4575838 0.87024415 -0.72582465 -0.08317467 0.20666797 -0.8346695 0.4083637
0.15482025 -0.35723472 0.70294034 -1.2613021 0.1090549 0.04360697 0.86318076 -1.0208781
0.07937584 -0.16897 -0.1429948 0.12518197 0.6090034 -0.3205291 -1.0912992 -0.97389346
0.99830633 -0.27418825 -1.012724 0.9499459 -0.027334431 0.12200464 -0.24636114 -1.0795655
0.36079082 -1.4059179 0.8562109 0.34659022 0.70443624 -0.95285755 0.64177716 -0.2628096
-0.21569143 0.009371359 0.7997139 -0.38706028 -0.8152084 -0.8170611 0.5702161 0.42942554
-0.78775376 -0.988065 -0.38164535 0.5604685 -0.32961524 0.39361027 -1.1931281 -1.2648904
0.29116946 -1.0556614 0.5327535 0.6736724 -0.2848413 0.063467905 0.09364517 -0.1411857
0.3805701 -0.5111945 0.7671113 -1.1000351 0.34156108 0.3243962 0.6186207 0.21005638
-0.042155642 -0.38483068 0.04095466 -0.3825966 -0.46502554 -0.28116518 -0.0119321495 0.15732376
-0.003766351 0.36090592 -0.18219411 0.22116587 -0.71913517 0.19273496 -0.07108512 -0.31973442
-0.31489635 -0.2672488 0.52648276 -0.22096707 -1.0679 0.6500646 -0.16458794 0.15918963
-0.19001395 -0.53572285 0.1409276 -0.7942216 0.7039834 -1.8081619 0.28259715 1.0160928
0.58531386 0.072637774 -0.5352361 -0.38524017 -1.7842194 1.1321818 -1.1369743 -0.90702283
0.22837313 -0.055940818 -0.50132364 0.6384576 0.7403247 0.20237438 -0.3425704 -0.621326
0.19456288 -0.31292135 -0.17186426 0.28161564 -0.687281 -0.7231586 -0.29722095 -0.018195743
-1.0731381 0.073520176 -0.32891762 0.04974034 0.79641145 -0.014235133 -0.691365 0.7187523
-0.28703767 0.5002655 -0.13336068 0.34110847 0.018036045 0.22978766 0.111232415 -0.84034854
-0.7392402 0.50036067 0.9580756 0.7752512 -0.3644542 -0.16975175 -0.08192321 -0.17242774
-0.6398025 -0.21006954 0.78398794 0.347288 0.04192308 0.23746522 0.38263494 -0.17147326
-1.4202051 -0.6135103 -0.18568994 0.40488222 0.20431714 -1.0257609 -1.0259984 -0.54931414
0.41286117 0.29964933 -0.51514506 0.27924645 0.18609959 -1.2141464 0.3844687 -0.024091471
0.17298894 -0.71447587 0.700747 0.06690919 0.9836867 -0.09811243 -0.54582614 -0.3860646
-0.20438768 0.06403514 -0.12887467 -0.70452297 -0.4111872 -0.26400083 -0.8600591 0.86691815
00000000: b1c5 86bf d22b 46bf 2564 b43f 5f92 ac3e
00000010: d2a3 6c3d 5f77 6a3e 1275 1a3e 2249 ffbe
00000020: ba66 103f d502 1c3f 40c1 b2bf 28c5 a9be
00000030: 8396 763f 4772 093f ccdd 03bf cf9f 80bd
00000040: 9946 b53d 240b 93bf 2c87 533e a5b5 18bf
00000050: 282c af3e 5d9c 5cbf 87f6 673f d157 223f
00000060: 1966 57bf f29a 6f3e de7c 17be 74cb 583f
00000070: 9220 89be 3582 abbe f7e6 38bf 8c57 29bf
00000080: 754c 2e3f 1e7b 5ebd 37c5 d1be 052c 2fbd
00000090: b093 543f bb57 9fbd 5a0b a93f dfdc abbc
000000a0: 9641 3fbf 860f 173f 29be 133f e59d e03e
000000b0: 17a2 f13e 0ef7 463f be51 ebbe f308 9a3c
000000c0: 566f 483f ab4d 2cbf 3c5b 203e e778 e2be
000000d0: a7b6 2e3e ad1f e33e 8b46 6d3c f283 6bbf
000000e0: c0cb 2fbf 04d7 bc3e 58dc 7bbe 01f1 d7be
000000f0: 5230 6f3c 3070 073e 1a95 1fbf c723 233f
00000100: 9572 99be 6d48 eabe 52c8 5e3f a5cf 39bf
00000110: 7b57 aabd c5a0 533e e6ac 55bf 0c15 d13e
00000120: 3389 1e3e 78e7 b6be e6f3 333f 5972 a1bf
00000130: 2d58 df3d 399d 323d 6af9 5c3f 22ac 82bf
00000140: cd8f a23d 7906 2dbe 3b6d 12be b42f 003e
00000150: a6e7 1b3f 641c a4be b1af 8bbf 1551 79bf
00000160: 0191 7f3f 6762 8cbe f1a0 81bf a82f 733f
00000170: 75ec dfbc 92dd f93d 1846 7cbe 342f 8abf
00000180: 93b9 b83e 1ef5 b3bf a330 5b3f 4674 b13e
00000190: ef55 343f 79ee 73bf 824b 243f fb8e 86be
000001a0: 37de 5cbe 548a 193c 0dba 4c3f c42c c6be
000001b0: 7fb1 50bf eb2a 51bf aff9 113f aadd db3e
000001c0: 3baa 49bf d4f1 7cbf 0567 c3be dd7a 0f3f
000001d0: 54c3 a8be 4987 c93e 6cb8 98bf eee7 a1bf
000001e0: 2a14 953e ea1f 87bf 8962 083f cb75 2c3f
000001f0: b8d6 91be 76fb 813d 0ac9 bf3d fc92 10be
00000200: 16da c23e a5dd 02bf 6861 443f f3cd 8cbf
00000210: 18e1 ae3e 4217 a63e ed5d 1e3f 0519 573e
00000220: 65ab 2cbd 8708 c5be 13c0 273d b4e3 c3be
00000230: d417 eebe e2f4 8fbe 107f 43bc 7b19 213e
00000240: e2d4 76bb a9c8 b83e 1891 3abe 4e79 623e
00000250: 3e19 38bf 505c 453e 1395 91bd 3bb4 a3be
00000260: 183a a1be d6d4 88be 93c7 063f 3145 62be
00000270: f2b0 88bf a26a 263f be89 28be 9b02 233e
00000280: 0493 42be 2225 09bf 534f 103e 1b52 4bbf
00000290: 4238 343f d971 e7bf 93b0 903e 540f 823f
000002a0: 21d7 153f 1dc3 943d 3c05 09bf 333e c5be
000002b0: 4d61 e4bf 55eb 903f 6088 91bf a632 68bf
000002c0: a5da 693e 3322 65bd bf56 00bf f571 233f
000002d0: eb85 3d3f 3b3b 4f3e 6365 afbe 390f 1fbf
000002e0: 7e3b 473e 3a37 a0be 2ffd 2fbe ed2f 903e
000002f0: a6f1 2fbf ec20 39bf 582d 98be 3d0f 95bc
00000300: 975c 89bf bf91 963d e467 a8be 87bc 4b3d
00000310: 9fe1 4b3f 7a3a 69bc 4cfd 30bf 2700 383f
00000320: 9af6 92be 6611 003f b48f 08be c5a5 ae3e
00000330: 54c0 933c 754d 6b3e d2cd e33d 1521 57bf
00000340: d93e 3dbf a317 003f 7144 753f dd76 463f
00000350: be99 babe 67d3 2dbe 5bc7 a7bd e690 30be
00000360: 19ca 23bf 781c 57be 6fb3 483f bccf b13e
00000370: 89b7 2b3d 152a 733e bae8 c33e b096 2fbe
00000380: 48c9 b5bf 030f 1dbf 8125 3ebe b94c cf3e
00000390: 8338 513e 224c 83bf ea53 83bf da9f 0cbf
000003a0: 8a62 d33e a36b 993e 8ce0 03bf 64f9 8e3e
000003b0: e490 3e3e 2669 9bbf 15d9 c43e 7a5b c5bc
000003c0: 0324 313e e4e7 36bf 2864 333f af07 893d
000003d0: e4d2 7b3f 2bef c8bd 43bb 0bbf 42aa c5be
000003e0: 014b 51be db24 833d b9f7 03be 9e5b 34bf
000003f0: 2187 d2be 1e2b 87be d52c 5cbf 59ee 5d3f

linear1.bias f4 [256]
0.11731038 -0.09502998 0.21060175 -0.0028807698 -0.17019735 0.028652316 0.13949896 0.3085377
0.1560551 0.10204995 0.16668436 -0.07863788 1.6348301 0.95369786 0.15050231 0.6341438
0.11716718 -0.40596455 0.023844058 0.3346794 0.6568959 -0.0022504092 1.7303176 -0.084010065
1.4329203 0.22622892 0.11309063 0.21561655 0.44167852 0.19243172 0.030563693 0.22981848
-0.2656578 1.2777497 0.8411332 -0.3669045 0.5228694 0.110577345 0.08550141 0.37607965
-0.17793037 -0.083352976 -0.055707827 -0.5210201 0.89164966 0.16237359 0.17076376 -0.06269705
0.40598354 -0.0039203083 0.1541231 0.001134673 0.014229793 1.3988256 0.8854932 0.98055226
0.37207338 -0.05891775 -0.36609375 0.3940905 0.08835406 2.265919 -0.069455825 -0.049507927
2.594572 0.084423155 -0.08301735 -0.5155947 0.017848006 -0.09698574 0.12017544 -0.40521172
-0.6856529 0.85647285 -0.374232 -1.1166964 -0.22786282 1.9737768 -0.30970964 0.45732108
0.6258808 0.50035 0.10757233 2.3297236 -0.31399298 -0.16451405 0.098305434 -0.33617437
-0.25275838 -0.18334952 -0.1630742 -0.1898692 0.073573805 0.7332551 0.316311 -0.24922544
0.26378185 1.1638931 0.6832917 0.25674015 0.25562325 1.9817476 0.4847827 -0.17265089
-0.05371218 0.27756244 0.20121966 -0.4163535 0.4839176 0.0007828564 0.8736107 -0.04632388
0.4990598 0.42717382 -0.42105958 1.6852134 0.016172599 -0.038697187 -0.2697252 0.7024759
0.74513006 -0.50979507 1.914685 -0.028545558 0.15123701 -0.07236387 0.096432015 -0.22984983
2.4703012 0.15349305 -0.5634788 0.4740053 0.6056492 0.81572497 0.9403023 0.41801623
0.7273301 2.0768037 0.80560476 1.9010694 2.0254598 0.21562603 0.8572479 -0.16627333
0.90664876 -0.7291378 0.615621 -0.1907695 0.08447461 1.9761397 0.5062106 -0.5387899
0.5128868 -0.1470507 0.08840332 0.4797307 -0.13023019 0.05508698 0.2295233 0.9489547
0.27411112 -0.34545973 0.66647935 0.7915375 0.34555373 1.0611554 0.22755869 -0.11381574
1.0451497 -0.31759596 -0.3742558 -0.008466318 -0.2621623 0.45031822 0.22057806 0.5694078
1.3063735 0.76118845 -0.14315599 0.58409894 0.332843 0.04918196 -0.20530047 -0.20418796
1.2231464 0.25913033 0.0010495053 0.6428385 0.51564986 0.47081852 1.3054824 0.4988886
-0.310044 0.22730981 1.1037385 0.38320455 -0.15505241 -0.07726499 0.11594642 0.99145883
0.92950904 0.122819275 -0.6261592 0.03341046 -0.15628266 0.49518335 1.026967 -0.10113221
1.9157653 0.14491023 0.5027162 0.13520795 0.4464563 0.25221598 0.7635404 0.91859126
0.35573643 -0.33416346 -0.07406434 0.3576624 1.3885067 -0.12078296 -0.1670378 -0.06531556
1.3977668 1.1294419 -0.32319543 0.0074088816 -0.12156233 -0.045169853 -0.752517 1.8014129
0.9158089 0.5132969 2.0435102 0.73399776 -0.046082243 0.36944634 0.56142783 -0.58267903
-0.26519382 0.008369462 0.019595347 1.9027084 -0.14403427 -0.21316355 0.34928098 0.090683684
0.19967958 -0.37539905 0.62097687 -0.23767684 -0.14448428 -0.03585506 0.05513362 0.18508294
00000000: 6d40 f03d 149f c2bd fca7 573e 4ccb 3cbb
00000010: 3748 2ebe 43b8 ea3c d1d8 0e3e a7f8 9d3e
00000020: e8cc 1f3e 90ff d03d 4eaf 2a3e e60c a1bd
00000030: 1d42 d13f 8b25 743f 471d 1a3e 4057 223f
00000040: 59f5 ef3d 96da cfbe 9d54 c33c 195b ab3e
00000050: 542a 283f 9a7b 13bb 0c7b dd3f 780d acbd
00000060: ef69 b73f 8ea8 673e 0f9c e73d 96ca 5c3e
00000070: b023 e23e d20c 453e b660 fa3c 8955 6b3e
00000080: 4d04 88be 4d8d a33f 8154 573f e8da bbbe
00000090: c5da 053f 6076 e23d 5d1b af3d 838d c03e
000000a0: 6133 36be f7b4 aabd e42d 64bd 9361 05bf
000000b0: 2743 643f 4345 263e b2dc 2e3e 5067 80bd
000000c0: 13dd cf3e ee75 80bb 72d2 1d3e 4fb9 943a
000000d0: 1424 693c b80c b33f afaf 623f 7905 7b3f
000000e0: 6780 be3e bd53 71bd a470 bbbe 3bc6 c93e
000000f0: f9f2 b43d d104 1140 db3e 8ebd d3c8 4abd
00000100: 780d 2640 0ce6 ac3d 0005 aabd 04fe 03bf
00000110: fb35 923c 76a0 c6bd 8b1e f63d e977 cfbe
00000120: f386 2fbf ce41 5b3f 569b bfbe e8ef 8ebf
00000130: df54 69be b8a4 fc3f 4392 9ebe fd25 ea3e
00000140: b939 203f f016 003f e24e dc3d 311a 1540
00000150: b0c3 a0be 5f76 28be 5c54 c93d 0c1f acbe
00000160: 8c69 81be fabf 3bbe ecfc 26be 126d 42be
00000170: ddad 963d 9bb6 3b3f 84f3 a13e f434 7fbe
00000180: 6a0e 873e 73fa 943f 34ec 2e3f 7273 833e
00000190: 0de1 823e e8a9 fd3f 7035 f83e 65cb 30be
000001a0: 4e01 5cbd aa1c 8e3e 870c 4e3e 492c d5be
000001b0: 0cc4 f73e 9b38 4d3a f3a4 5f3f 1cbe 3dbd
000001c0: c484 ff3e 87b6 da3e 1f95 d7be 13b5 d73f
000001d0: 667c 843c f180 1ebd 6c19 8abe 76d5 333f
000001e0: d8c0 3e3f ee81 02bf 6614 f53f 60d8 e9bc
000001f0: e0dd 1a3e 8233 94bd 267e c53d c15d 6bbe
00000200: 6a19 1e40 482d 1d3e 2640 10bf d3b0 f23e
00000210: d30b 1b3f 5ad3 503f a7b7 703f 3906 d63e
00000220: 4e32 3a3f 5aea 0440 1d3c 4e3f 3e56 f33f
00000230: 22a1 0140 12cd 5c3e 9974 5b3f 8e43 2abe
00000240: 221a 683f c6a8 3abf 5699 1d3f 1459 43be
00000250: 0601 ad3d 25f2 fc3f 0597 013f 23ee 09bf
00000260: 8d4c 033f 7594 16be cd0c b53d 439f f53e
00000270: 105b 05be e3a2 613d 2808 6b3e b2ee 723f
00000280: 4b58 8c3e 19e0 b0be 649e 2a3f 34a2 4a3f
00000290: 6bec b03e f1d3 873f 2505 693e 3a18 e9bd
000002a0: 77c7 853f f09b a2be 759e bfbe 50b6 0abc
000002b0: 233a 86be 1c90 e63e 37df 613e b6c4 113f
000002c0: 3f37 a73f 3fdd 423f 7c97 12be 8287 153f
000002d0: 666a aa3e 0673 493d 493a 52be a616 51be
000002e0: 1090 9c3f bbac 843e 8e8f 893a 1091 243f
000002f0: a101 043f 200f f13e 0c1a a73f 546e ff3e
00000300: 16be 9ebe e7c3 683e 4e47 8d3f 6333 c43e
00000310: 0fc6 1ebe 1b3d 9ebd 5175 ed3d 3fd0 7d3f
00000320: 4ef4 6d3f ac88 fb3d f84b 20bf 68d9 083d
00000330: 9008 20be ac88 fd3e a873 833f 671e cfbd
00000340: cc37 f53f 5963 143e 02b2 003f f473 0a3e
00000350: ec95 e43e 7422 813e 6277 433f cc28 6b3f
00000360: 1623 b63e 7917 abbe 0baf 97bd 871f b73e
00000370: 96ba b13f 0e5d f7bd f50b 2bbe 2ac4 85bd
00000380: 06ea b23f 8d91 903f df79 a5be 34c6 f23b
00000390: acf5 f8bd 0604 39bd f4a4 40bf b394 e63f
000003a0: 7472 6a3f 6d67 033f dfc8 0240 47e7 3b3f
000003b0: bcc0 3cbd 1228 bd3e bcb9 0f3f 742a 15bf
000003c0: 7cc7 87be 1120 093c 6c86 a03c f38b f33f
000003d0: b87d 13be 8c47 5abe f5d4 b23e 5eb8 b93d
000003e0: ce78 4c3e 4e34 c0be 57f8 1e3f 8f61 73be
000003f0: b0f3 13be c1dc 12bd cad3 613d 6286 3d3e

linear2.weight f4 [3, 256]
0.6810475 -1.1751015 0.25372738 -0.01775469 -0.85320926 0.6113897 0.7890794 1.0784839
-2.1613138 0.99883884 0.7749537 -0.6937598 0.4502824 0.27873975 -0.40735593 1.3191677
-1.1723663 2.7036283 -0.9676597 0.41596544 1.2201316 -0.55901295 0.90206015 -1.8383327
0.74225634 -0.77922165 -1.2191387 1.0818162 1.44492 -0.37280002 -0.10418763 -2.2714503
-0.39839202 0.83686113 0.6403594 -0.20730957 0.4246517 0.9117568 -1.8667699 1.0195988
-1.127821 -1.5283102 0.54506344 -0.8408592 0.4980132 1.1151061 0.9976021 0.9091595
0.9194667 -1.2232537 -2.0473113 -2.0540345 0.15350191 0.40021142 1.0095024 1.0998056
1.02643 0.39876395 0.22965918 -1.9636754 0.9855775 0.647115 -0.18057656 0.60353386
0.58661073 0.8539631 0.0028137225 -0.81024855 -0.02532141 -0.4730392 1.2175438 0.79456234
-0.13425405 1.0038123 -1.2250743 -0.5733652 0.42080033 0.69367003 -1.6041389 0.6416511
0.18584415 0.81806946 0.58038 0.8489559 -0.8773146 -0.024034368 -0.7365683 -1.6207178
0.8802164 0.15147641 0.3142734 0.028668158 -1.4176079 0.7447798 1.2857542 -1.5429281
0.8516935 0.6609798 0.61446935 0.64644426 -1.642845 0.64827025 0.490029 0.71188927
-1.5597279 -1.2279192 0.556162 -0.6306909 0.44473052 0.7490677 1.2832198 0.52863747
0.9776082 0.9035528 -0.032568403 0.73683 0.8991183 0.7151598 -0.61923516 0.047680087
0.8532477 0.7285249 0.7988351 0.70692515 1.0306591 0.9347411 -1.328015 0.7365502
0.86876047 1.0043443 -0.078343526 1.0509268 0.36684206 1.2149724 0.8985843 0.7122554
0.47764108 0.51631093 0.4533959 0.6752929 0.70269537 -0.47118843 0.89819896 -0.049404025
0.31589594 -0.8800552 1.0382825 -0.20022659 0.28444514 0.6601578 -0.3801181 -0.4523599
1.1889533 0.10368893 0.79183006 0.56292224 -0.2812842 -1.0278593 0.85421586 0.807585
-1.0652566 -1.743766 1.0728643 0.4764245 -1.487424 0.9397734 -1.633369 -0.91922015
0.5195209 -1.2982665 -1.03171 -0.9696451 0.00039169728 0.9448359 1.1329576 1.3183204
0.81233853 0.31543502 -0.063336805 1.0322369 0.69579583 0.55026335 -0.0024556364 0.04917503
0.34773922 -0.2883029 -0.6442315 0.43162456 0.64279383 1.4265065 1.0196246 0.8000442
-0.12817813 -1.9566538 0.44396228 1.4236708 0.18831237 -1.9000422 0.1871666 0.4636603
0.24782108 -0.5210297 -0.35265493 0.77727616 0.059741378 0.71504056 0.58248335 -1.378566
1.0112722 -1.7536106 0.8854895 -2.4833217 0.64680916 -1.1329187 0.38578928 0.374883
0.14953643 -1.1670109 -0.7491153 0.7603815 0.5743158 -1.3291723 -1.008512 0.15135765
0.984287 1.0916452 -1.2921885 0.42804858 -1.1739308 -1.7218837 -1.2302364 0.5940366
1.1253058 -1.3364056 0.7489019 0.7240677 0.28857324 1.1054195 1.1790015 -0.7207327
-1.5319781 -1.580702 0.7242082 0.96429294 -0.7366 -1.9556923 -1.6501814 0.9127442
-1.797015 -0.013912922 0.6625828 0.30749506 -1.6976173 0.6897168 -1.8501563 -0.18686752
00000000: 2159 2e3f ba69 96bf 8ee8 813e 4972 91bc
00000010: ec6b 5abf 0984 1c3f 1c01 4a3f c30b 8a3f
00000020: f752 0ac0 e7b3 7f3f 5e63 463f 3e9a 31bf
00000030: 6a8b e63e fab6 8e3e f590 d0be 7dda a83f
00000040: 1910 96bf 3f08 2d40 8cb8 77bf 6cf9 d43e
00000050: 462d 9c3f 791b 0fbf 6aed 663f 7c4e ebbf
00000060: 8304 3e3f 127b 47bf bd0c 9cbf f478 8a3f
00000070: 23f3 b83f a5df bebe 5360 d5bd 715f 11c0
00000080: 0afa cbbe 883c 563f 98ee 233f f648 54be
00000090: f36b d93e e568 693f 51f2 eebf 3782 823f
000000a0: 705c 90bf ab9f c3bf 4789 0b3f 8c42 57bf
000000b0: 96fb fe3e ccbb 8e3f da62 7f3f adbe 683f
000000c0: 2b62 6b3f 9493 9cbf 2607 03c0 4d75 03c0
000000d0: 9b2f 1d3e 83e8 cc3e 6037 813f 6ec6 8c3f
000000e0: 0f62 833f ca2a cc3e c72b 6b3e b759 fbbf
000000f0: cf4e 7c3f 54a9 253f 10e9 38be 3281 1a3f
00000100: 1f2c 163f 539d 5a3f 6e66 383b 736c 4fbf
00000110: d86e cfbc 3232 f2be 7ad8 9b3f 7068 4b3f
00000120: e579 09be ec7c 803f 3ccf 9cbf 10c8 12bf
00000130: 2473 d73e 5c94 313f 6c54 cdbf 3f43 243f
00000140: ee4d 3e3e 006d 513f c993 143f 2d55 593f
00000150: b197 60bf b9e3 c4bc bd8f 3cbf ae73 cfbf
00000160: dd55 613f a21c 1b3e 71e8 a03e 7cd9 ea3c
00000170: 2d74 b5bf e4a9 3e3f 9893 a43f ab7e c5bf
00000180: 9608 5a3f f935 293f dd4d 1d3f 5f7d 253f
00000190: bf48 d2bf 0af5 253f 15e5 fa3e 603e 363f
000001a0: 2aa5 c7bf 752c 9dbf a260 0e3f f574 21bf
000001b0: b8b3 e33e e7c2 3f3f 8c40 a43f c954 073f
000001c0: 8844 7a3f 3c4f 673f 7266 05bd e4a0 3c3f
000001d0: 9e2c 663f b614 373f 3286 1ebf 324c 433d
000001e0: 716e 5a3f 9c80 3a3f 7580 4c3f 0cf9 343f
000001f0: a3ec 833f 314b 6f3f 65fc a9bf 8e8e 3c3f
00000200: 1667 5e3f 5b8e 803f 9272 a0bd c584 863f
00000210: b9d2 bb3e 3784 9b3f 9f09 663f 5f56 363f
00000220: 5f8d f43e f42c 043f 8223 e83e ffdf 2c3f
00000230: d8e3 333f 9c3f f1be 5ef0 653f e05b 4abd
00000240: 1dbd a13e 4c4b 61bf 71e6 843f 3308 4dbe
00000250: cba2 913e 1a00 293f d79e c2be b89b e7be
00000260: 9f2f 983f dd5a d43d 60b5 4a3f ac1b 103f
00000270: 7c04 90be e590 83bf e4ad 5a3f e4bd 4e3f
00000280: 545a 88bf b933 dfbf 9e53 893f e9ed f33e
00000290: e963 bebf fd94 703f 3c12 d1bf 0352 6bbf
000002a0: 52ff 043f 992d a6bf 130f 84bf a93a 78bf
000002b0: b85c cd39 c4e0 713f c104 913f b9be a83f
000002c0: 6bf5 4f3f b380 a13e bab6 81bd 5720 843f
000002d0: ad1f 323f 0fde 0c3f beee 20bb c26b 493d
000002e0: e00a b23e 709c 93be 5bec 24bf e5fd dc3e
000002f0: 238e 243f c497 b63f 0f83 823f b2cf 4c3f
00000300: 2141 03be a273 fabf 064f e33e d83a b63f
00000310: f5d4 403e 9534 f3bf 9aa8 3f3e e264 ed3e
00000320: cfc4 7d3e 3462 05bf 308f b4be 92fb 463f
00000330: 60b3 743d e60c 373f a11d 153f da74 b0bf
00000340: 5e71 813f 5076 e0bf 71af 623f beee 1ec0
00000350: 4995 253f 7b03 91bf 2c86 c53e aaf0 bf3e
00000360: 1420 193e 9d60 95bf 05c6 3fbf 5da8 423f
00000370: 5c06 133f 5122 aabf ec16 81bf 80fd 1a3e
00000380: 3cfa 7b3f 08bb 8b3f 6f66 a5bf 2f29 db3e
00000390: 5d43 96bf af66 dcbf 6378 9dbf c812 183f
000003a0: 050a 903f 570f abbf 09b8 3f3f 805c 393f
000003b0: dfbf 933e 637e 8d3f 85e9 963f f081 38bf
000003c0: dc17 c4bf 7154 cabf b565 393f e7db 763f
000003d0: d191 3cbf 2054 fabf 2539 d3bf 9ba9 693f
000003e0: 9604 e6bf 06f3 63bc 079f 293f fe6f 9d3e
000003f0: 864b d9bf 4891 303f ecd1 ecbf 335a 3fbe

linear2.bias f4 [3]
0.54214823 0.8008441 0.0927731
00000000: 3aca 0a3f 1e04 4d3f d3ff bd3d
