model/model.pth (torch, 16799 bytes, 4 tensors)

linear1.weight f4 [256, 11]
000000 1c 76 2f 3f 99 a2 a2 3e 61 51 2e 3f 0b 9c e0 3e
       0.68539596 0.31764677 0.68092924 0.4386905
000010 aa 07 5b 3d db 4c 81 bd b9 7f 8e be af 37 d2 be
       0.053474106 -0.06313487 -0.2783182 -0.41058108
000020 35 3e 8a bd 30 61 1f bf 11 3f 03 bf 13 7e 1c 3f
       -0.06750146 -0.6225767 -0.51268107 0.61129874
000030 4a 52 65 3f f6 16 8f bf 14 5e 87 bf 5c ad aa 3d
       0.8957869 -1.1178882 -1.0575585 0.08333847
000040 86 57 b1 bf 6d 4d e0 3e 16 2a 11 bf 9c 41 3c 3f
       -1.3854835 0.4380907 -0.56704843 0.7353761
000050 44 8d cd 3e c7 48 e1 bf 20 4d db 3e d0 57 3f be
       0.4014684 -1.7600335 0.4283228 -0.18685842
000060 d0 96 fb be c4 8a c0 3e 87 e9 22 3f aa 29 1a 3e
       -0.49138498 0.3760587 0.63637584 0.15054956
000070 f4 9d ba bf c1 a8 11 bf 04 e5 e1 3d 75 b0 19 3f
       -1.4579453 -0.56898123 0.110300094 0.6003488
000080 79 d1 80 3e 27 10 cb bd dc d7 60 3f a5 8b ef 3e
       0.25159815 -0.0991519 0.87829375 0.46786228
000090 e3 de 3b bf b2 d5 5c 3d 4d 24 03 bf ef 0a 00 3f
       -0.73386973 0.053914733 -0.51227266 0.50016683
0000a0 59 d7 1f bf bc 12 03 bf 49 0a 34 3f 53 12 70 bf
       -0.6243797 -0.5120046 0.70328194 -0.9377796
0000b0 cf a7 42 3d 7e 46 1e 3e 6c 64 5f 3f e7 6e 60 3e
       0.047523316 0.15456578 0.87262607 0.21917306
0000c0 b4 2d cc bd b5 a9 3b bf cf 5e 34 bf e3 81 00 bf
       -0.09969655 -0.7330583 -0.70457166 -0.5019819
0000d0 72 9f 31 bf 7b d0 dc be e4 b7 c7 be 88 0e 85 3f
       -0.6938392 -0.43127808 -0.39007485 1.039506
0000e0 e9 df 00 bf a8 57 02 bf bd 77 fe be b5 44 81 3e
       -0.5034166 -0.50915 -0.49700728 0.25247732
0000f0 2e 88 0b 3f 0f 97 13 3d 93 58 1d 3f dc 28 cb be
       0.5450467 0.036032733 0.6146328 -0.3967961
000100 5a d2 8c be 0d ee 89 bf c0 b0 2b bf 13 4d 45 3f
       -0.27504236 -1.0775772 -0.67066574 0.7707073
000110 96 cf 30 3f 15 f7 33 bf 8c f0 4e 3e 08 a1 b4 bd
       0.6906675 -0.7029889 0.20208949 -0.08819777
000120 71 5e 43 bf 15 36 c8 3e 0a 7f 5a bf 7f 2b 88 3f
       -0.7631598 0.3910376 -0.85350096 1.0638274
000130 86 00 b3 be f5 da 32 bf fd 77 05 bf d3 4e 85 3f
       -0.34961337 -0.6986535 -0.5213621 1.041468
000140 b0 73 0b 3f 3d fd 33 3f 3a 11 94 be d3 d6 4c 3f
       0.544734 0.70308286 -0.28919393 0.80015296
000150 82 49 19 3f 4c cc 64 bf 57 a7 53 bf eb 76 50 3f
       0.5987779 -0.8937423 -0.82677215 0.81431454
000160 c3 04 98 3f 57 3e b7 3e f1 e1 81 bf c8 20 e3 3e
       1.1876453 0.3578975 -1.0147077 0.44360948
000170 1d f1 1a bf 28 48 43 bf 6f 81 2d bf 62 3d 1b 3f
       -0.6052416 -0.76281977 -0.67775625 0.6064054
000180 88 8e cc bf 26 05 ca be 97 a0 d8 be 89 71 32 3f
       -1.5980997 -0.39457053 -0.4231002 0.6970449
000190 50 e3 3b 3f 4e 10 d7 bd 1e 90 84 bf b4 49 3e 3e
       0.73393726 -0.10501157 -1.0356481 0.18582803
0001a0 c1 5a e4 3e cc ea f6 be 50 d8 47 3d b4 52 a9 be
       0.4460049 -0.4822601 0.048790276 -0.3307091
0001b0 9c d4 61 3f 98 e0 18 bf b7 e0 1b bf bc bc f7 bd
       0.8821504 -0.597177 -0.6088976 -0.12096545
0001c0 0f cc 83 be 14 29 85 3f 5d 9f d8 3e a3 7c 30 3c
       -0.25741622 1.0403161 0.42309085 0.010771903
0001d0 9e 8c 8f 3e db d6 b8 3e 35 84 ae be 77 1a b0 bf
       0.2803697 0.36101422 -0.3408524 -1.3758076
0001e0 43 1d 82 bd ec c2 49 3f 2e e5 fe 3e 13 85 9d bf
       -0.063532375 0.7881305 0.49784225 -1.2306236
0001f0 d1 66 de be 40 e4 22 3e 7c 5a 4c 3d 09 ea 11 3e
       -0.43437818 0.15907383 0.04989098 0.14249434
000200 40 c9 00 bf 60 1c 30 3f c6 c4 59 3f 23 52 ca bf
       -0.50307083 0.68793297 0.8506588 -1.5806316
000210 5f 39 fa 3e 4c 12 1b be 88 c6 f6 3e fa 3a d3 3e
       0.48871896 -0.15143698 0.48198342 0.41255933
000220 98 78 06 bf 31 be 1a be 27 c2 c6 be f4 a9 8a be
       -0.5252776 -0.15111615 -0.3882 -0.2708279
000230 05 41 46 bd 57 42 9b bf dc 65 cf be b9 97 7a bf
       -0.04840185 -1.212962 -0.405074 -0.9788776
000240 2d 2a 1b 3e 9c c5 7c 3f 88 cc 2a 3f d2 01 24 be
       0.15152808 0.9873903 0.6671834 -0.1601632
000250 29 40 ae be 5d de 53 3e 25 2e bd bf 9a f9 e2 3e
       -0.34033325 0.20690294 -1.4779707 0.44331056
000260 1c 5e 84 bf fb 20 84 3e 48 98 9d bf a6 15 70 3e
       -1.034122 0.25806412 -1.2312098 0.23445758
000270 40 e0 86 3f 04 54 ab bf 84 9f 07 bc a5 47 a9 3d
       1.0537186 -1.3385015 -0.008277778 0.08265618
000280 3b 0d 74 3f 6c 5a bb be 1a 05 de 3e b1 68 80 bf
       0.9533269 -0.36592424 0.43363267 -1.0031949
000290 d0 2d 0a 3f 9a 7d 28 3f 10 8c cf 3e 8f d4 9a 3d
       0.53976154 0.6581665 0.40536547 0.075600736
0002a0 19 94 87 3d 36 28 37 be 18 63 04 3f 13 b1 49 bf
       0.06620044 -0.17886433 0.51713705 -0.7878582
0002b0 fa 12 e7 bd 48 f0 a3 3d 07 ad a8 be 03 21 45 bf
       -0.11282916 0.080048144 -0.3294451 -0.77003497
0002c0 35 8f 76 3e 51 d8 7e 3e 88 03 5f bf c3 25 57 bd
       0.24078067 0.24887206 -0.87114763 -0.052526247
0002d0 ee ff 2b 3f 31 5a d1 bf 3d 33 27 3e 0b 4f 2c be
       0.6718739 -1.6355649 0.1632814 -0.16827027
0002e0 53 57 1c 3f 50 6a e2 3e ae 6d 1f 3f 4b b1 53 3f
       0.61070746 0.44221735 0.6227673 0.826924
0002f0 5b b9 e3 3d 70 53 23 3f 39 fe 53 3e e3 c1 c3 be
       0.11119338 0.6379919 0.20702447 -0.3823386
000300 b8 40 e9 bd 86 6e 05 be 48 26 dc be 01 e1 43 bd
       -0.11389297 -0.13030443 -0.42997956 -0.047822002
000310 44 a8 12 bf 10 b6 08 bf 7f bc 8c bf c4 4b 27 3f
       -0.57288 -0.53402805 -1.0995024 0.65349984
000320 7f ba 29 3f ac 14 10 bd 56 19 b1 bd e8 75 da 3e
       0.66300195 -0.035175964 -0.086474106 0.4266808
000330 7b bd 3d bf a4 07 7a bf ac d3 3a 3f 41 08 0b 3e
       -0.7411725 -0.9766791 0.72979236 0.13577367
000340 7b 93 a7 bf 18 a6 d4 3d ea 0c 5d bd e2 dd fa 3d
       -1.3091882 0.10383242 -0.053967394 0.12249352
000350 6d cf 1d 3e 29 1e a6 3b f7 9f 9d be d9 fc d0 bd
       0.15411158 0.0050695133 -0.30786106 -0.10204477
000360 9f 42 df be f8 42 1f be df b8 17 be 19 e8 c7 bc
       -0.43605515 -0.1555289 -0.14816616 -0.024402665
000370 fc da 67 bf 84 72 83 bf 73 d7 6b 3f 8c ab 30 3f
       -0.9056852 -1.0269322 0.92125624 0.6901176
000380 2e 38 9a be df 8c 4b 3f 86 15 2f be df 32 a6 bf
       -0.30120987 0.7951183 -0.17098054 -1.2984275
000390 6b 15 07 3f 0e ba 78 3e 7b 78 90 bf 77 87 99 bf
       0.52767056 0.24289724 -1.1286768 -1.1994466
0003a0 d3 64 d3 be 42 49 04 3f 07 86 a0 3f 62 01 a7 3d
       -0.4128786 0.5167428 1.2540902 0.081545606
0003b0 de 2e 65 bf ed 45 b8 3e 9b 4b 40 be 82 2b 85 bf
       -0.8952464 0.3599085 -0.18778841 -1.0403903
0003c0 5d 8e c3 be 8b 5a 8f 3f fc 4a 19 3e 56 b5 74 be
       -0.38194552 1.1199507 0.1497001 -0.23897299
0003d0 be 20 e8 3e 4b 72 4b 3f f4 b1 7b 3e 44 a8 35 bf
       0.4533748 0.7947127 0.24579602 -0.7095988
0003e0 7e ab 4e 3f 7c 97 c5 be 29 9f 31 bf 3b 67 06 bd
       0.80730426 -0.38592136 -0.69383484 -0.032813292
0003f0 15 69 ad 3e 85 e3 bd be fc f5 c3 3e 27 4d 4a 3d
       0.33869234 -0.37087646 0.3827361 0.049389984

linear1.bias f4 [256]
000000 b8 b5 d7 3f 34 e5 20 be 3e 5b 1c 3e 17 d9 00 3f
       1.6852331 -0.15712434 0.15269181 0.5033125
000010 45 ee 79 3f 52 bf ee bd 13 c8 32 3e 5c 36 71 3d
       0.97629195 -0.11657585 0.17459135 0.05888973
000020 34 88 8d 3e 60 bf 82 3e 8d ec 9b 3e d8 66 e2 bd
       0.27642977 0.25536633 0.3045391 -0.11054772
000030 63 01 11 3f 88 05 df 3e 9f a6 27 3e 58 b4 6e 3f
       0.5664274 0.43558908 0.16372155 0.9324393
000040 0c 1b f3 bd cf 69 d4 3f 75 29 cb 3d b6 09 8e 3f
       -0.11870393 1.659479 0.09920017 1.1096714
000050 91 43 15 3e cd 4c 5c 3e 59 58 ec 3e 3c 4f b8 3e
       0.14576556 0.21513672 0.46161154 0.3599795
000060 cc 71 21 3f be 94 d0 bd d3 b0 32 be bd 87 9d 3e
       0.63064265 -0.1018462 -0.17450266 0.30767623
000070 88 ab d8 ba ed 90 e9 3f e8 ed 20 3f 5e b0 d0 3e
       -0.0016530612 1.8247353 0.62863016 0.40759557
000080 f2 56 4d 3f f3 7e ab 3e a2 44 a0 3f d3 b2 10 3e
       0.80210793 0.33495292 1.2520945 0.14130716
000090 27 4d 60 3f cd 4f d7 3e 0c 1d 83 be fa 5e ef 3d
       0.87617725 0.4205307 -0.25608099 0.11688037
0000a0 cc af 18 3f a5 f0 36 3f 82 24 13 40 b7 72 91 3c
       0.59643245 0.71460944 2.2991033 0.017754896
0000b0 57 3c 03 3f 7f 6f 8b be 46 dc 3b 3e 11 e5 58 3e
       0.51263946 -0.27233502 0.18345746 0.21181132
0000c0 3c 39 66 3f ea 23 8b be af cf c3 3e 4b b1 06 3f
       0.8993108 -0.27175838 0.38244388 0.5261428
0000d0 71 fa 90 3e 3b c9 b7 3e 96 cd 0c 3e aa f6 36 3e
       0.28316072 0.35895714 0.137503 0.17867532
0000e0 89 88 9c 3e e6 02 17 3f a4 99 e0 3d ab 1b cb 3d
       0.30572918 0.589888 0.109668046 0.099173866
0000f0 6f 17 18 bf ea 75 18 3f dd bf d0 3d ed 01 ab 3e
       -0.59410757 0.5955492 0.10192845 0.33399907
000100 00 6f 49 3e fb 6f 7a 3e b6 92 31 3e 31 9b 78 3e
       0.1967125 0.2445678 0.17341122 0.24277951
000110 9d 3c 83 bc e1 67 20 3f 31 bd f7 be 7f 11 d4 3d
       -0.016020114 0.62658507 -0.4838653 0.103548996
000120 39 78 82 be 43 30 0a 40 49 19 c8 3d 3c 34 9f 3e
       -0.25482348 2.1591957 0.09770448 0.3109454
000130 99 42 8b 3e 72 1b c6 3e 5f 3d fc 3d 41 c5 cb 3f
       0.27199247 0.38692814 0.12316393 1.5919572
000140 1d 1f a5 be 83 bf 9b bc f3 6f 94 3e bc 53 18 3f
       -0.322503 -0.019012218 0.2899166 0.5950277
000150 44 b1 98 3f fd 16 39 3f c8 0b c1 3d 6f 60 18 3f
       1.1929097 0.723007 0.09426075 0.59522146
000160 6f a0 ac 3e 4d 29 c4 3e 81 c3 77 3e 2b 96 63 3f
       0.3371615 0.3831276 0.24195673 0.88901013
000170 6e 6e a2 bc 90 c5 f1 3f 14 72 b1 3d df d0 ed be
       -0.019828048 1.8888416 0.08664337 -0.46448418
000180 6c bb c0 3f 6a 8c 6e be 66 61 89 be c5 1d 3f 3e
       1.5057197 -0.23295751 -0.26832122 0.186637
000190 d4 b4 62 be fa f1 1e 3f 9c cb 5d be 05 99 d9 3f
       -0.22139293 0.62087977 -0.21659702 1.6999823
0001a0 71 5b b7 3e 4c 7f b0 3e 62 7a e4 3f 2a 96 f2 3e
       0.35811952 0.3447212 1.7849848 0.4738019
0001b0 45 80 e3 3f 51 92 0e 40 ad f3 0b 3f 58 87 f0 3e
       1.777352 2.2276804 0.54668695 0.4697826
0001c0 b0 1b 49 3f 64 ad b7 3f 76 18 ec 3e 03 f9 88 3f
       0.7855787 1.434979 0.46112412 1.0700992
0001d0 bd ee 1d 3e 3e b1 bb 3e c9 d0 d5 3d 5c 20 0a be
       0.15423103 0.36658663 0.10440213 -0.13488907
0001e0 5e b8 8a 3f 80 5e b1 3e 62 48 79 bc f8 5b 86 3e
       1.0837514 0.3464241 -0.015215011 0.26242042
0001f0 15 a6 83 3b 39 6e 4d 3d 47 a9 d6 3e e9 39 33 3f
       0.0040176013 0.050153945 0.41926023 0.7001024
000200 4e 5b ea 3e cb 22 8b 3e 7a 07 95 be 8b a8 3d 3e
       0.45772785 0.27174982 -0.29107267 0.18521325
000210 da a1 be 3e 69 88 06 3f 6c bd 25 3f d0 89 47 3f
       0.37232858 0.52551895 0.6474216 0.7794466
000220 b5 75 81 3e 71 66 b8 bd a0 85 d4 bd 0c 73 85 3f
       0.25285116 -0.09003914 -0.103770494 1.0425735
000230 e0 9b 96 3e 67 98 9e bd 1b 73 80 3f 53 83 49 be
       0.29415798 -0.07743912 1.0035127 -0.19679002
000240 6c b6 06 3f e2 56 0c bf 5d cb 3b 3f 4e 44 3b be
       0.52622104 -0.5482007 0.7335718 -0.18287775
000250 cb 60 81 3c e1 6e 0e 40 0e bf 3c bd 97 be 3f 3d
       0.015793225 2.2255175 -0.04608064 0.04681262
000260 37 74 e4 3d fa e6 d0 3e 63 74 96 be 25 49 ea 3e
       0.11154979 0.4080122 -0.2938567 0.4575893
000270 cf 5e fd be 66 89 ec bd 49 ce f7 bd 2a 81 ba 3e
       -0.49486396 -0.11549644 -0.12099893 0.3642667
000280 57 d3 22 3f 58 26 2c 3f 7e 93 8b 3e 6a 0d ce 3f
       0.6360373 0.6724601 0.27260965 1.6097844
000290 88 3b 52 3d 99 9c ce be 5c 4f df bd 31 de 8e 3f
       0.051326305 -0.4035385 -0.109038085 1.1161557
0002a0 5e ed de 3c 81 d9 47 3c 9e d2 9f 3f 2b ec 8f 3e
       0.027212795 0.012197853 1.248615 0.2810987
0002b0 41 cf 23 3f 0b ec 06 3f 7f d0 48 be 4d a7 bf be
       0.6398812 0.52703923 -0.19610785 -0.37432328
0002c0 5b df 1b bd 49 68 9e 3f 10 4c 33 bd f6 7e df bd
       -0.038054805 1.2375575 -0.04377371 -0.10912888
0002d0 ef 21 1d 3f e0 dd 6c 3f 44 e8 50 be 90 30 08 bf
       0.61379904 0.92526054 -0.20401102 -0.531991
0002e0 39 41 dd 3f 36 cd fe 3e 13 20 e4 3f 6c 26 66 be
       1.7285529 0.4976594 1.7822288 -0.22475594
0002f0 1e 66 6d be 97 00 5f 3f b9 0a b4 3e 9b 1d 96 be
       -0.23183486 0.87110275 0.3516443 -0.29319462
000300 9c 1d 83 be 28 29 1b 3f 11 ed c4 3e 6e f9 f5 3d
       -0.25608528 0.60609674 0.38462117 0.120104656
000310 e5 0c 0f be 8c 9f 22 3f 35 4f 91 3f dd eb 8d 3d
       -0.13969763 0.635247 1.1352297 0.06929753
000320 07 76 b9 3e 50 63 1c bf 44 d8 1d 3e cf 31 47 be
       0.3622286 -0.6108904 0.1541453 -0.19452594
000330 3c 54 b2 bd 3a d4 56 bd d2 d8 fe 3d 8e f2 20 3f
       -0.08707473 -0.05244849 0.12443699 0.6287011
000340 16 e5 1f be 5f 92 55 3f 30 bf 83 3d 28 e7 47 3f
       -0.15614733 0.8342647 0.064329505 0.7808709
000350 a8 6f 60 be 9e 78 fa 3e 17 7a 57 3f 8f cb 85 3f
       -0.21917593 0.4892015 0.8417067 1.0452746
000360 b6 dc 9f be a8 61 d1 be e8 4c 1c 3f ab 26 47 bf
       -0.31223077 -0.40894818 0.6105485 -0.7779338
000370 fd 73 a0 be f7 0a 8d 3f fd 08 e8 3e 2c 11 5e bd
       -0.31338492 1.1018971 0.45319358 -0.054215595
000380 94 03 15 3f 59 c1 73 3f bc 5c 5a 3b cd 2d 08 40
       0.58208585 0.952169 0.0033319434 2.1277955
000390 13 f0 c7 3f 0c 32 89 be 1e 06 82 be 26 2f 12 be
       1.562014 -0.26795995 -0.25395292 -0.14275798
0003a0 96 44 a4 3e e1 11 ff 3e d6 65 ec bd d6 86 bd be
       0.32083577 0.49818328 -0.11542861 -0.37016934
0003b0 a4 3f 5e be 25 37 bf 3e 69 bf e7 3f 8c 84 9f 3d
       -0.21703964 0.3734676 1.8105289 0.07788953
0003c0 03 2a a6 3e 09 98 e3 3e af 57 11 be e9 a5 02 3d
       0.32453927 0.4445193 -0.14193605 0.031896506
0003d0 c1 57 8c be 2a 2c 88 3f 76 31 de 3f b4 3b 29 3f
       -0.274107 1.0638478 1.7358844 0.66106725
0003e0 d7 ba 44 3f 19 0f b2 3e 9c 23 e5 be 91 3c f6 be
       0.76847595 0.34777144 -0.4475373 -0.48093084
0003f0 59 7f 0e 3f 4d 13 e3 3e 61 4b 23 3f ec 16 90 3f
       0.5566307 0.44350663 0.63786894 1.1256995

linear2.weight f4 [3, 256]
000000 b3 a1 61 3f a2 ec a5 bf d5 7b b7 bf 41 48 be 3d
       0.8813736 -1.296284 -1.4334666 0.09291125
000010 14 3b f9 3e 45 2c 5d 3f 43 eb cf bf 30 45 be bf
       0.48677886 0.86395675 -1.6243671 -1.4864864
000020 7f 53 ae 3f 2e 25 96 3e 55 a3 cd bf c2 96 9a bf
       1.3619231 0.2932524 -1.606547 -1.2077258
000030 c4 09 28 3f c1 40 49 3f b8 3c 4e 3f f3 7f 43 3f
       0.656399 0.7861443 0.805614 0.7636711
000040 58 f6 a9 bf 77 36 46 3f c0 96 4a 3f b1 a2 a3 3e
       -1.3278303 0.77426857 0.79136276 0.3196006
000050 0b ae 7b 3f 3e 67 14 bf e3 f2 b6 be 7b 86 9d bf
       0.98312443 -0.57970035 -0.35732183 -1.2306665
000060 31 ac 41 3f 4f d4 d8 3e b9 3b 4e bc 4d f2 38 3f
       0.7565337 0.4234948 -0.012587481 0.7224472
000070 18 7b ce bf 4d 62 6f 3f 39 c7 64 3f 65 f2 6b 3e
       -1.6131315 0.9350937 0.8936649 0.23041685
000080 c9 cf 43 3f f9 c7 5a 3e 51 33 32 3f ff e4 0d 3f
       0.7648893 0.21365346 0.6960955 0.55427545
000090 3d 9c 36 3f 96 90 74 3f 52 a3 71 bf 67 85 07 3f
       0.7133215 0.9553312 -0.9438983 0.5293793
0000a0 59 a6 4d 3f a4 f5 fb 3e 27 b7 4f 3f 6a ae 14 3f
       0.8033195 0.49210846 0.81138843 0.58078635
0000b0 38 83 51 3f c6 1e ab bf ae 95 98 bf 98 ff e8 be
       0.8184085 -1.3368766 -1.1920679 -0.45507503
0000c0 5b b6 e9 3e 50 00 c3 bf fb b8 6e be 41 e7 64 3f
       0.4564694 -1.523447 -0.23312752 0.89415365
0000d0 bb de 96 3f 68 c0 3a 3f 30 0d 8e 3f 49 3b cc bf
       1.1786722 0.7294984 1.1097775 -1.5955592
0000e0 49 aa 00 c0 73 e6 64 3f fe ae c0 bd b1 b5 5e bf
       -2.0103934 0.8941414 -0.09408377 -0.8699599
0000f0 87 58 2b bf b0 6a 59 3f 14 1d 90 3f 6a d7 99 bf
       -0.66931957 0.8492842 1.1258874 -1.2018864
000100 f8 c6 f9 3e 72 db 4e 3f 62 e2 5c 3f dd a2 ac bf
       0.48784614 0.80803597 0.8628293 -1.3487202
000110 82 9b 52 bf d1 0e 66 3f e2 34 7a bf 93 6c 9e bf
       -0.82268536 0.8986636 -0.9773694 -1.2376884
000120 26 ce 2e 3f c7 7b 56 3f 51 c3 58 3f 32 d9 0b 3f
       0.6828331 0.8378262 0.8467303 0.5462829
000130 bb 90 90 bf c5 5d 55 3f 10 18 1b 3f 55 01 1e 3f
       -1.1294168 0.83346206 0.6058359 0.6172078
000140 bf 08 d8 3d 9e d0 bc bf 0d 32 6e 3f fc cb 2a 3f
       0.10548543 -1.4751165 0.9304512 0.66717505
000150 ed a8 25 3f 5c c6 2c be 1e ff 30 bf 2c 7d c5 3f
       0.64710885 -0.16872543 -0.6913928 1.5428824
000160 e0 4c 2c bf 4c 57 6e bf ec 41 ec bf 65 44 70 3f
       -0.673048 -0.93101954 -1.8457618 0.9385436
000170 87 83 30 c0 18 07 4e 3f 19 32 e7 bf cc 06 f3 bc
       -2.7580278 0.80479574 -1.8062164 -0.029666327
000180 e7 92 4d 3f 93 26 07 3f 80 4d ab bc c2 76 95 3e
       0.8030228 0.52793235 -0.020910978 0.29192168
000190 de f0 a3 bf 5e ae 72 3f 0e 68 c7 bb 06 e4 4a 3f
       -1.2807882 0.94797313 -0.0060854023 0.79254186
0001a0 65 99 e0 be 9c ae 01 3f b0 7c 4c 3f f1 36 a6 3f
       -0.4386703 0.5065706 0.7987776 1.2985517
0001b0 26 2e 22 3f 0e 6c 43 3f 0a fe 3f 3f dd 21 64 3f
       0.63351667 0.76336753 0.7499701 0.8911417
0001c0 09 88 1a 3f 89 e0 52 3f 8b 9b ba bf 59 eb 61 3f
       0.60363823 0.82373863 -1.4578718 0.8824974
0001d0 75 03 65 be aa 83 8d bf ed b3 b0 3f 82 40 7a bf
       -0.223646 -1.1055806 1.3804909 -0.9775468
0001e0 be 55 0f 3f d0 53 52 3f b8 44 78 3d c7 20 c0 bf
       0.5599021 0.8215914 0.06061241 -1.5010003
0001f0 96 12 3a 3f 4e 1d cc 3c 98 45 3f bf 78 be 57 3f
       0.7268461 0.024916317 -0.74715567 0.8427501
000200 0f 70 30 3f e4 c7 e9 3e e1 3b 49 3d 83 c3 0e c0
       0.6892099 0.45660317 0.04912937 -2.230683
000210 d4 29 09 c0 20 1b 7b 3e cf f8 5b 3f 4e 82 63 3f
       -2.143178 0.24522066 0.85926527 0.88870704
000220 55 c6 27 3f 05 01 12 3d e5 4c c0 bf 0f f3 33 3f
       0.65537006 0.035645504 -1.5023466 0.70292753
000230 ec ba 6b 3f c5 bd 23 bf 3a ac 71 3f df a5 2c 3f
       0.92082095 -0.6396144 0.9440342 0.674406
000240 90 55 6f 3f b4 f8 cf be b8 b1 52 3f dc 33 cf bf
       0.93489933 -0.40619433 0.8230243 -1.6187701
000250 26 45 37 3f f0 c7 5a 3f c0 b2 8e 3f 62 80 2e 3f
       0.7158989 0.8546133 1.11483 0.68164647
000260 4e fb 57 bf 1d c0 83 3f a2 4f c3 bf 5c 50 1e 3f
       -0.84367836 1.0293003 -1.5258677 0.6184137
000270 1d 33 17 3f 58 bc a1 bf 7c a5 f0 bf 1d c1 33 3f
       0.5906237 -1.2635603 -1.8800502 0.7021654
000280 57 58 22 3f de 1f 81 3f 21 4e b2 be 03 e0 7c 3f
       0.63416046 1.008785 -0.34825233 0.98779315
000290 6f c4 5a bf 62 04 8e bd ac f5 a9 bf 72 6c 4f 3f
       -0.85455984 -0.0693443 -1.3278098 0.8102485
0002a0 a3 8b d3 bf 2e d8 ec bf 28 3f 64 3f 35 e8 97 3f
       -1.6526989 -1.8503473 0.8915887 1.1867739
0002b0 24 61 92 3f 25 b6 2b 3f 99 ba b8 3e f7 bb d9 bd
       1.1435895 0.67074805 0.36079863 -0.106315546
0002c0 44 e0 37 bc 9b 33 1b 3f e1 4a 82 bf 6b 95 c4 bf
       -0.011222903 0.6062562 -1.0179101 -1.5358099
0002d0 f3 e0 ca bf a6 2f 3f 3f 35 ca 95 bf 8e d6 14 be
       -1.5849899 0.7468208 -1.1702334 -0.14534971
0002e0 09 76 5c 3f 1b 93 1f 3f d6 87 2c 3f 47 a2 ec be
       0.8611761 0.6233384 0.6739477 -0.46217558
0002f0 bc 36 20 3f 97 3d 4d 3f f1 f7 5c 3f f2 20 e4 be
       0.6258352 0.80172104 0.8631583 -0.44556385
000300 9a 5a 81 bf e5 aa 84 3f d2 fd 85 3f ff 37 3f bd
       -1.0105774 1.0364653 1.0468085 -0.04668426
000310 37 d6 00 3d 0a 0f 77 3f 01 00 2a 3f 81 13 27 3f
       0.03145429 0.9650732 0.66406256 0.65264136
000320 1b 82 6a 3f 5a 13 2b bf f9 a6 82 3f 40 da b6 3c
       0.91604775 -0.66826403 1.0207206 0.022320867
000330 c3 fb 00 3e d8 6d b1 bf 7b 3e c9 be 76 08 10 3e
       0.1259604 -1.3861647 -0.3930548 0.14065728
000340 1d c2 a1 bf 16 89 50 3f b2 6d 91 bf a9 2a 4b 3f
       -1.2637364 0.81459177 -1.1361601 0.7936197
000350 b3 dd c0 bf 07 da 50 3f 27 0d 4b 3f 29 db 54 3f
       -1.5067657 0.81582683 0.79316944 0.8314691
000360 97 24 83 be 36 a6 26 bf a2 8b 56 3f 5c 4f 13 bf
       -0.25613853 -0.6509737 0.8380681 -0.5754297
000370 b3 57 4a bf 0f 58 3e 3f a0 de 5b 3f 04 ef ac 3e
       -0.7904007 0.74353117 0.85886574 0.33776104
000380 cc dc 90 3f e4 5a 70 3f af 3f be 3e 3a b8 6b 3f
       1.1317382 0.9388869 0.37157962 0.9207798
000390 21 ae 7e 3f a1 96 ab bf 0d a2 68 bf ce d2 19 3f
       0.9948445 -1.3405343 -0.9087227 0.6008729
0003a0 64 6b 71 3f 7b 79 6f be ca d3 0b c0 2a 1c ed be
       0.9430449 -0.23386185 -2.1848016 -0.4631055
0003b0 43 1a 16 bc e8 2b 5d 3f a9 d8 4c 3f 98 e8 f4 bf
       -0.009161535 0.8639512 0.800181 -1.9133482
0003c0 89 74 86 3f 94 db 55 bc 36 5b 33 bf 6d 18 6b 3f
       1.0504314 -0.01305284 -0.7006105 0.91834146
0003d0 f6 12 c8 3c 4e be 3b 3f f3 ff 13 3f c3 38 80 3f
       0.024423104 0.73337257 0.5781242 1.0017322
0003e0 b6 cf 6a 3f 42 82 57 bf 5b c9 e8 3c 01 b0 2e bf
       0.9172319 -0.8418313 0.028416326 -0.6823731
0003f0 1b 62 87 3f 94 3d 49 3f 33 88 0e 3f fe f2 66 3f
       1.0576814 0.78609586 0.55676574 0.90214527

linear2.bias f4 [3]
000000 58 95 21 3f ec b1 69 3e 07 61 a1 3e
       0.63118505 0.22821778 0.31519338
